models/cifar_torchvision.pt (torch, 251593 bytes, 10 tensors)

conv1.weight f4 [6, 3, 5, 5]
-0.16027305 -0.10514724 0.009676623 -0.22004233 -0.17704377 -0.19545215 -0.10364887 -0.07528685
-0.20821318 -0.32400003 -0.54539144 -0.30358708 -0.27396074 -0.46630397 -0.30802378 0.06766798
0.08633318 0.14894077 0.17707197 0.29698953 0.5858248 0.6118313 0.5440611 0.49313328
0.56711555 -0.023041863 0.04078323 0.25641578 -0.097048946 -0.062529445 -0.035246473 0.16495201
0.034653753 -0.0949726 -0.14406016 -0.34206977 -0.352622 -0.41939852 -0.30605915 -0.42078602
-0.417121 -0.26163638 -0.21115254 -0.12738214 -0.08681102 -0.0669602 0.09667195 0.07906616
-0.13160849 -0.17171867 0.26970255 0.34328428 0.44528785 0.26869264 0.2855511 0.3420999
0.5050692 0.31559828 0.10609271 0.16981968 -0.0061397003 0.035482474 -0.14782427 -0.0038167585
0.12725964 -0.3238303 -0.14265047 -0.06277854 -0.073141 0.012892682 -0.29297382 -0.04592047
-0.048062094 -0.14881665 -0.05459709 -0.08793106 -0.4667208 -0.49477875 -0.17257276 0.18590459
-0.17622148 -0.31864986 -0.20871903 0.006981691 0.016236298 0.018263802 0.24190184 0.31322837
-0.0970395 -0.31511945 0.09175483 0.21022223 0.27790752 0.2691742 -0.16501042 0.24279341
0.07138629 0.033542827 0.12740617 0.2381156 -0.022933679 -0.21970437 -0.31407726 -0.021060174
0.2798052 0.069460124 -0.25749192 -0.069877476 0.12950374 0.07129406 0.05378476 0.41908252
0.31593543 0.017703507 -0.411765 -0.1251196 0.13352996 0.2784094 0.12390107 -0.24614564
0.1333145 -0.02283207 -0.19686933 -0.014913346 -0.008793406 0.0040136357 -0.3860197 -0.3611638
-0.006315064 0.38839594 -0.06190817 -0.24534672 -0.26134488 -0.032608084 0.24268529 -0.048867177
0.24741688 0.43300655 -0.15581776 -0.230947 0.018826555 0.20634094 0.30489928 0.21115214
-0.17919314 0.15559614 -0.11293883 -0.05928656 0.0945976 0.17896323 0.23838158 0.40185773
0.299935 0.27166703 0.20874609 0.11771803 0.18285108 -0.11509711 0.05441928 0.24114504
0.2023943 0.26919174 -0.6708081 0.09919958 0.208464 0.0189758 0.29700312 -0.63146234
0.22472829 0.039345443 -0.107941754 0.027772369 -0.70842046 -0.017116847 -0.11246206 -0.20600489
-0.33626094 -0.61944723 -0.40368602 -0.36844906 0.13166405 -0.06686646 -0.7884244 -0.2917759
0.01629249 0.39391732 0.079313435 -0.90237534 -0.070079364 0.1656207 0.22941487 0.17199741
-0.8951137 0.12457459 0.32539123 0.20611434 0.2702168 -0.47393128 0.1273592 0.25364232
0.05243555 0.0636037 -0.004055815 0.0049242345 -0.20657071 0.10197818 0.08082748 -0.21751101
0.082671665 0.05291649 0.13278234 0.108920485 -0.70594156 0.23993716 0.24386558 0.17194477
0.284547 -0.8184381 0.2976883 0.24343674 0.11650489 0.3076931 -0.37750736 0.34904283
0.13784713 0.14573057 0.10070572 0.03931381 0.09443607 0.2396503 -0.14260902 -0.14202985
-0.098883376 -0.10621939 -0.1704471 -0.16904974 -0.29586664 -0.29764822 -0.22283465 -0.12840818
-0.3143863 -0.3508064 -0.36209142 -0.31414425 -0.2471428 -0.3400436 -0.2410089 -0.1915492
-0.15594614 -0.15467416 -0.0038937985 -0.15233603 -0.15030602 -0.22472614 -0.06733541 -0.17279266
00000000: 9e1e 24be 7057 d7bd b38a 1e3c c752 61be
00000010: f64a 35be 9c24 48be dc45 d4bd fe2f 9abd
00000020: d635 55be 55e3 a5be c69e 0bbf c46f 9bbe
00000030: 9544 8cbe 65bf eebe 4bb5 9dbe 8395 8a3d
00000040: 73cf b03d ee83 183e 5b52 353e 030f 983e
00000050: 9df8 153f faa0 1c3f 9747 0b3f f77b fc3e
00000060: 7c2e 113f 4ac2 bcbc 510c 273d ee48 833e
00000070: 99c1 c6bd 700f 80bd 9b5e 10bd 2ee9 283e
00000080: 18f1 0d3d ff80 c2bd 8284 13be c523 afbe
00000090: df8a b4be 67bb d6be c9b3 9cbe 4471 d7be
000000a0: e290 d5be 34f5 85be 5f38 58be 7770 02be
000000b0: fac9 b1bd 6e22 89bd f1fb c53d 70ed a13d
000000c0: 60c4 06be 05d7 2fbe 7416 8a3e f5c2 af3e
000000d0: c5fc e33e 1592 893e c133 923e b827 af3e
000000e0: 374c 013f 1996 a13e 2247 d93d 36e5 2d3e
000000f0: 8a2f c9bb 1256 113d 3f5f 17be 9522 7abb
00000100: 5a50 023e 16cd a5be f712 12be 0992 80bd
00000110: f3ca 95bd d43b 533c aa00 96be 1a17 3cbd
00000120: c2dc 44bd 6463 18be 33a1 5fbd 3315 b4bd
00000130: 07f6 eebe a453 fdbe eab6 30be c65d 3e3e
00000140: 6773 34be 1326 a3be 71ba 55be abc6 e43b
00000150: fc01 853c f89d 953c 1eb5 773e 785f a03e
00000160: a5bc c6bd 5657 a1be f5e9 bb3d 7f44 573e
00000170: e549 8e3e 33d1 893e 7ef8 28be d69e 783e
00000180: fa32 923d 3464 093d c376 023e 93d4 733e
00000190: 69df bbbc 2ffa 60be bcce a0be 6386 acbc
000001a0: a142 8f3e 1c41 8e3d fbd5 83be ec1b 8fbd
000001b0: a19c 043e 9f02 923d 694d 5c3d fc91 d63e
000001c0: 4ac2 a13e f206 913c ddd2 d2be 5a1f 00be
000001d0: 14bc 083e ad8b 8e3e d8bf fd3d 9a0d 7cbe
000001e0: 9983 083e 520a bbbc 1d98 49be 1b57 74bc
000001f0: 3812 10bc d184 833b 60a4 c5be 76ea b8be
00000200: 99ee cebb d5db c63e 6c93 7dbd 2c3c 7bbe
00000210: ffce 85be 0e90 05bd 7e82 783e f328 48bd
00000220: da5a 7d3e 09b3 dd3e b18e 1fbe 5f7d 6cbe
00000230: 263a 9a3c 0a4b 533e c21b 9c3e 4438 583e
00000240: 687e 37be 9854 1f3e 794c e7bd 77d6 72bd
00000250: 63bc c13d 2342 373e 4d1a 743e 4cc0 cd3e
00000260: 1591 993e f117 8b3e 89c1 553e 2716 f13d
00000270: 503d 3b3e 09b8 ebbd c0e6 5e3d baee 763e
00000280: 7440 4f3e 80d3 893e 14ba 2bbf 2629 cb3d
00000290: 9677 553e 2373 9b3c cb10 983e 84a7 21bf
000002a0: 2c1f 663e b028 213d 9110 ddbd e182 e33c
000002b0: 0b5b 35bf a138 8cbc 8252 e6bd f2f2 52be
000002c0: 652a acbe 1894 1ebf efaf cebe 5ba5 bcbe
000002d0: f1d2 063e 48f1 88bd 2ed6 49bf a763 95be
000002e0: d477 853c 88af c93e 156f a23d 1202 67bf
000002f0: c585 8fbd 7998 293e bbeb 6a3e 1720 303e
00000300: 2c26 65bf f620 ff3d ae99 a63e a30f 533e
00000310: db59 8a3e 1fa7 f2be 736a 023e 68dd 813e
00000320: a9c6 563d a842 823d a4e6 84bb 795b a13b
00000330: 4687 53be f0d9 d03d e188 a53d 35bb 5ebe
00000340: c34f a93d f6be 583d 18f8 073e b411 df3d
00000350: 96b8 34bf 16b2 753e e6b7 793e 4a12 303e
00000360: 25b0 913e 2985 51bf 9a6a 983e 7b47 793e
00000370: 1e9a ee3d f389 9d3e a548 c1be beb5 b23e
00000380: cc27 0d3e 653a 153e cd3e ce3d 8507 213d
00000390: b367 c13d e366 753e 1908 12be 4670 11be
000003a0: 5e83 cabd 8d89 d9bd af89 2ebe 601b 2dbe
000003b0: d57b 97be 5965 98be c42e 64be 6f7d 03be
000003c0: 3ef7 a0be e59c b3be 0c64 b9be 84d7 a0be
000003d0: 0113 7dbe 321a aebe 09cb 76be 7925 44be
000003e0: 58b0 1fbe e762 1ebe 192f 7fbb fafd 1bbe
000003f0: d2e9 19be 9c1e 66be 26e7 89bd 8ff0 30be

conv1.bias f4 [6]
-0.4717385 -0.041690197 -0.13579352 0.47848314 -0.5670468 0.20591986
00000000: b587 f1be 57c3 2abd 750d 0bbe befb f43e
00000010: fb29 11bf a8dc 523e

conv2.weight f4 [16, 6, 5, 5]
-0.2696351 -0.28845313 -0.17983767 -0.24485992 -0.06462779 -0.24177994 -0.25914758 -0.0674304
-0.050358143 -0.0012747742 -0.14094672 -0.03134543 0.11983145 -0.10657984 -0.1218189 0.0052740355
-0.08633898 -0.16911428 -0.025876893 0.021380909 0.12145397 0.0250039 -0.13503017 -0.04347057
0.022144727 -0.18294396 -0.1197792 -0.033677638 0.09458976 -0.108098835 -0.22797705 -0.055853806
-0.08239324 -0.026188834 0.06866486 -0.18894334 -0.28869486 -0.060992006 0.17624101 0.15812601
-0.22280042 -0.08670377 0.17243747 0.18986388 0.013787284 0.26224387 -0.012104275 -0.017717106
0.2535266 0.1356388 -0.066151194 -0.14691752 -0.06906003 0.0007392395 0.12112673 -0.35612422
0.01373903 -0.024625316 0.030844968 -0.14590923 -0.27441418 0.12415857 0.06447417 0.16830428
-0.4590295 0.25886634 -0.23539738 -0.20292152 -0.09003865 0.07212652 0.5842648 -0.36766404
-0.13097763 -0.13204361 0.36677143 -0.12659119 0.010740383 -0.0018460624 0.011515103 0.06186497
0.038433738 -0.09956492 -0.07891082 -0.17621204 -0.13912192 -0.033629324 -0.23733582 -0.13974471
-0.094102845 -0.18890643 -0.060856596 -0.15305756 -0.3134028 -0.14621896 -0.121615276 -0.11794161
-0.26414418 -0.26451278 -0.22479117 -0.2618069 -0.25132176 -0.20332079 -0.041778713 -0.016314393
0.0008689243 -0.24424337 0.06603509 0.016782822 -0.055875357 -0.07756859 0.04113177 -0.1207103
-0.28460622 0.08041371 0.1990794 -0.040981766 0.055846695 0.051701706 0.13788185 -0.05750148
0.18761592 -0.03461301 0.19431733 0.05231628 0.105923735 0.046239264 0.047098536 -0.034476776
0.06778197 0.019598868 0.19168742 -0.05825119 -0.12608692 -0.16659693 -0.00454022 0.11190511
-0.07076825 -0.08651163 -0.22174907 -0.02939731 -0.011112156 0.08317448 -0.011549215 -0.117207535
-0.18045673 -0.005759244 0.29755843 0.06242162 0.08387255 -0.034828067 0.01721899 0.06397553
0.08807186 0.038283814 0.12918384 0.029914338 0.114990026 0.15568411 0.04966824 0.023114726
-0.0078626815 0.050915897 0.06783968 0.10087984 0.122531444 -0.13144928 -0.07971822 -0.04497063
-0.09422584 -0.051102143 -0.13397853 0.02201168 0.20956609 -0.0029925825 0.024347903 0.06863055
0.066525124 0.12125222 0.015736315 0.105455324 -0.15662318 0.057414994 -0.124691196 -0.014672745
-0.042547435 0.008026873 0.013646016 -0.32444668 -0.13716191 0.13750905 -0.0040840805 0.0015203953
-0.1983455 -0.286559 -0.032634113 0.23950393 0.20170976 0.05333275 -0.11186496 -0.09620049
-0.25613546 -0.059107106 -0.23177232 -0.32812396 -0.27023453 -0.048292097 -0.18078244 -0.36205477
-0.24952939 -0.107954085 0.09715785 -0.02107527 -0.08881571 0.090416156 -0.01888868 0.5302997
0.29588455 0.26547375 0.0036660542 0.18542169 0.33821175 0.061634984 0.25133628 0.20524746
0.1798536 0.0040475964 0.024406847 -0.025109062 -0.018085452 -0.019329851 0.09189509 0.12388383
0.072408795 0.12448154 0.10744798 0.06713846 0.17845999 0.24167211 0.19160995 0.02639984
-0.16543952 -0.111054875 -0.013025599 -0.06363639 0.04363763 -0.11631466 -0.18536697 -0.31555203
-0.22617386 -0.04105306 0.06343336 0.08916744 0.034969296 -0.08875637 0.15433876 0.0782608
00000000: 9d0d 8abe 21b0 93be 5e27 38be 8fbc 7abe
00000010: 935b 84bd 2995 77be feae 84be f318 8abd
00000020: 5744 4ebd 5316 a7ba 5654 10be 1164 00bd
00000030: 316a f53d 8846 dabd 307c f9bd d1d1 ac3b
00000040: 7ed2 b0bd 4b2c 2dbe c7fb d3bc 0427 af3c
00000050: dcbc f83d fbd4 cc3c 5945 0abe 320e 32bd
00000060: dc68 b53c a955 3bbe cc4e f5bd 90f1 09bd
00000070: 47b8 c13d ec62 ddbd d172 69be f6c6 64bd
00000080: c9bd a8bd f789 d6bc 2aa0 8c3d 5d7a 41be
00000090: d0cf 93be c1d2 79bd 8678 343e c9eb 213e
000000a0: cb25 64be bf91 b1bd 7393 303e ad6b 423e
000000b0: 0fe4 613c d444 863e 0251 46bc 7723 91bc
000000c0: 3dce 813e e6e4 0a3e 477a 87bd 8c71 16be
000000d0: 586f 8dbd 86c9 413a 4b11 f83d ea55 b6be
000000e0: ab19 613c 08bb c9bc 96ae fc3c 3b69 15be
000000f0: 0480 8cbe d946 fe3d 090b 843d f557 2c3e
00000100: ea05 ebbe 218a 843e 030c 71be a9ca 4fbe
00000110: 2f66 b8bd 12b7 933d 6192 153f 763e bcbe
00000120: 001f 06be 7136 07be 77c9 bb3e 1fa1 01be
00000130: 6ef8 2f3c 93f7 f1ba d8a9 3c3c 1f66 7d3d
00000140: b26c 1d3d b1e8 cbbd ff9b a1bd ee70 34be
00000150: fa75 0ebe e7be 09bd 2908 73be 3d19 0fbe
00000160: feb8 c0bd b070 41be c444 79bd 1fbb 1cbe
00000170: 5576 a0be 6cba 15be 6e11 f9bd 5f8b f1bd
00000180: e83d 87be 386e 87be a82f 66be 8e0b 86be
00000190: 3fad 80be 5333 50be 2820 2bbd c3a5 85bc
000001a0: 86c8 633a ef1a 7abe 683d 873d 217c 893c
000001b0: 8fdd 64bd 48dc 9ebd c979 283d f636 f7bd
000001c0: e8b7 91be f1af a43d 78db 4b3e 7fdc 27bd
000001d0: 81bf 643d 2bc5 533d e630 0d3e ac86 6bbd
000001e0: 631e 403e 5fc6 0dbd 1ffb 463e 9849 563d
000001f0: 8bee d83d 6265 3d3d 65ea 403d 8537 0dbd
00000200: 46d1 8a3d ce8d a03c b549 443e cd98 6ebd
00000210: ee1c 01be 6398 2abe 20c6 94bb 822e e53d
00000220: f2ee 90bd 022d b1bd 3012 63be a1d2 f0bc
00000230: c30f 36bc 6257 aa3d eb38 3dbc 810a f0bd
00000240: a6c9 38be 0ab8 bcbb 9459 983e d0ad 7f3d
00000250: 5fc5 ab3d e0a7 0ebd d70e 8d3c 9a05 833d
00000260: 055f b43d 7dcf 1c3d c548 043e ea0e f53c
00000270: e47f eb3d a86b 1f3e ed70 4b3d 185b bd3c
00000280: 7ad2 00bc 308d 503d 88ef 8a3d 179a ce3d
00000290: c4f1 fa3d a49a 06be 4e43 a3bd 2033 38bd
000002a0: 7af9 c0bd 7b50 51bd ab31 09be d751 b43c
000002b0: 7e98 563e 341f 44bb 4175 c73c 2c8e 8c3d
000002c0: 533e 883d 1553 f83d 72e9 803c f6f8 d73d
000002d0: d461 20be fc2b 6b3d 195e ffbd f465 70bc
000002e0: 3846 2ebd 2583 033c 8a93 5f3c e01d a6be
000002f0: 2c74 0cbe 2ccf 0c3e c0d3 85bb 0048 c73a
00000300: 151b 4bbe dcb7 92be 59ab 05bd 8540 753e
00000310: 018d 4e3e 7173 5a3d 7519 e5bd c304 c5bd
00000320: 3024 83be 4b1a 72bd b955 6dbe ddff a7be
00000330: 2e5c 8abe efcd 45bd 081f 39be 3e5f b9be
00000340: a284 7fbe 0817 ddbd b2fa c63d 0ba6 acbc
00000350: 03e5 b5bd 1b2c b93d 6fbc 9abc b9c1 073f
00000360: 2e7e 973e 2dec 873e 2f42 703b 2fdf 3d3e
00000370: 172a ad3e f774 7c3d 26af 803e 642c 523e
00000380: 8b2b 383e b3a1 843b def0 c73c 85b1 cdbc
00000390: f127 94bc a359 9ebc 7e33 bc3d ceb6 fd3d
000003a0: 104b 943d 2df0 fe3d b00d dc3d e47f 893d
000003b0: 37be 363e e578 773e 6635 443e 7a44 d83c
000003c0: fa68 29be bd70 e3bd 5269 55bc cc53 82bd
000003d0: 5fbd 323d 6136 eebd d7d0 3dbe 0990 a1be
000003e0: 1f9a 67be 4127 28bd 59e9 813d 6b9d b63d
000003f0: f73b 0f3d e6c5 b5bd fb0a 1e3e 3347 a03d

conv2.bias f4 [16]
1.3479265 -0.81445104 0.69801474 0.08911445 0.108343184 0.88395536 -0.35204414 0.9569196
-0.07231775 0.32770735 -0.4606129 -0.35234925 -0.30358183 0.024928465 -0.43627074 -0.5328039
00000000: db88 ac3f dd7f 50bf 18b1 323f a381 b63d
00000010: 08e3 dd3d e64a 623f 213f b4be aff8 743f
00000020: 541b 94bd 42c9 a73e 74d5 ebbe 1f67 b4be
00000030: 146f 9bbe c836 cc3c e15e dfbe d665 08bf

fc1.weight f4 [120, 400]
-0.001984613 -0.049485013 -0.09226358 -0.09605889 -0.031221816 0.06707893 0.016820978 0.015904404
0.028398247 0.048396952 0.050220355 0.018072655 -0.022296762 0.0052857334 -0.022784837 0.023072537
-0.052456435 -0.034722928 -0.018126484 -0.0025907264 0.007983358 -0.006939939 -0.0825393 -0.059882503
-0.0023786935 0.09631995 0.0073744706 -0.076713055 0.040365186 0.09355968 0.04821859 0.0053595016
-0.025046846 -0.08114135 -0.04401395 -0.089785576 -0.013805729 -0.012673217 -0.073037654 0.0184962
-0.051988702 -0.06310156 0.03570029 -0.08534116 -0.07098374 0.027582167 0.04184105 0.10713739
0.006983236 0.018641643 -0.027391251 -0.099085495 -0.09165274 -0.06764424 -0.048117492 0.07503586
-0.0648743 -0.010696865 0.04424768 -0.004442202 0.025946237 -0.03760329 -0.029442452 0.056363538
0.014481876 0.052300807 -0.0403798 -0.0142230475 0.012459997 0.059672955 -0.014005361 -0.013272568
-0.1188181 0.07813998 0.10289902 0.021248916 0.08603487 -0.040721484 0.018011412 0.009401982
0.078434505 0.04169053 -0.022772837 -0.069686115 0.072871074 0.004833043 -0.057361588 0.036401458
0.034551024 0.040148005 0.08044719 0.110617906 0.105133116 0.04041078 0.04097964 0.027954075
0.071242645 0.07718864 0.019092802 0.02066376 -0.084183544 0.02424859 -0.02524026 0.018694617
-0.040846087 -0.036695108 0.045269135 -0.036497243 0.05886726 -0.024206743 -0.0067529953 0.06347741
-0.05652151 -0.04071971 0.025047733 -0.041143823 -0.015085543 0.010844891 -0.01609135 0.034946207
-0.024420047 -0.027082164 -0.041867405 -0.08715275 0.017430227 -0.01763446 -0.04253198 0.002892653
-0.059052724 -0.014379871 -0.049490973 0.054371927 -0.027243303 -0.04977282 -0.045627184 0.0019838472
0.101416714 0.04528324 -0.020007208 -0.028128248 -0.043383952 0.10973526 0.08821305 0.03371774
0.015086813 -0.07886185 -0.023370467 -0.07409053 -0.039576992 -0.053665537 0.15242751 0.033220634
-0.06349468 0.022365443 0.18961504 0.02687796 0.014766363 0.043975573 0.06786137 0.037080057
0.074852265 0.014089844 -0.009737167 0.0566164 -0.010821131 -0.016264591 -0.0393227 0.02523597
-0.014105194 -0.013985113 -0.0277235 0.07459541 0.038794477 -0.01829761 -0.06870096 -0.05132345
-0.07138325 -0.056172803 -0.03402094 -0.05411982 -0.05220346 -0.08694708 -0.10799718 -0.038424507
-0.018281884 -0.06537332 -0.08582185 -0.020221334 -0.061003074 0.01677017 0.0016496867 0.0048602023
-0.04845379 -0.045897294 -0.071401075 -0.044519782 -0.026390286 -0.02858728 -0.08297136 0.0023295686
-0.02623687 -0.084922925 -0.075366355 -0.008762744 -0.010210947 -0.028367346 0.027328534 -0.07957201
-0.10844269 0.015825953 -0.044273734 -0.06259779 -0.09173836 -0.055264063 -0.013572542 -0.01991581
-0.04066859 -0.048833735 0.025796212 -0.0018061452 -0.02740046 0.038554817 -0.028131805 -0.07379975
0.014057594 -0.053472158 -0.102644525 -0.09172787 -0.043624014 -0.0981445 -0.03475312 -0.08136398
0.005863238 -0.0076398035 -0.08611394 -0.098659955 -0.06614466 -0.010246948 -0.05114266 -0.062396098
-0.0936645 -0.10582616 -0.011535761 -0.07659458 -0.053343035 -0.09466713 -0.07682217 -0.023606941
-0.09044832 -0.014136388 -0.025542608 -0.026738511 -0.040721506 0.035154495 0.0065781297 -0.04316699
00000000: 4810 02bb ccb0 4abd b0f4 bcbd 86ba c4bd
00000010: e5c4 ffbc ae60 893d 26cc 893c f449 823c
00000020: 71a3 e83c e23b 463d dcb3 4d3d 1b0d 943c
00000030: b3a7 b6bc f233 ad3b 44a7 babc 9e02 bd3c
00000040: 8fdc 56bd a139 0ebd fe7d 94bc 2dc9 29bb
00000050: a1cc 023c 6e68 e3bb 5d0a a9bd 5b47 75bd
00000060: dbe3 1bbb 6543 c53d 8ba5 f13b bc1b 9dbd
00000070: f755 253d 389c bf3d db80 453d c29e af3b
00000080: 0b2f cdbc 702d a6bd f947 34bd 80e1 b7bd
00000090: 6d31 62bc 53a3 4fbc c494 95bd 5885 973c
000000a0: 1bf2 54bd 643b 81bd 783a 123d 59c7 aebd
000000b0: ec5f 91bd fff3 e13c 8561 2b3d d96a db3d
000000c0: a1d3 e43b 5cb6 983c 9e63 e0bc 56ed cabd
000000d0: 6fb4 bbbd 1089 8abd d916 45bd 67ac 993d
000000e0: d1dc 84bd e741 2fbc 0e3d 353d e48f 91bb
000000f0: 348d d43c e805 1abd 4c31 f1bc 74dd 663d
00000100: 6445 6d3c 5f39 563d 4a65 25bd c907 69bc
00000110: 0425 4c3c a16b 743d be76 65bc 2f75 59bc
00000120: e756 f3bd db07 a03d b9bc d23d 3512 ae3c
00000130: 0d33 b03d 92cb 26bd ab8c 933c c50a 1a3c
00000140: 45a2 a03d b0c3 2a3d 1a8e babc 98b7 8ebd
00000150: 6e3d 953d 815e 9e3b fcf3 6abd b219 153d
00000160: 6085 0d3d 3c72 243d 7fc1 a43d a48b e23d
00000170: 0850 d73d c685 253d 44da 273d f2ff e43c
00000180: aae7 913d 1415 9e3d 8268 9c3c 0c47 a93c
00000190: 6c68 acbd fba4 c63c a9c4 cebc 7425 993c
000001a0: 3a4e 27bd 9c4d 16bd 216c 393d 227e 15bd
000001b0: cc1e 713d 384d c6bc 3b48 ddbb 7200 823d
000001c0: 1983 67bd b6c9 26bd e730 cd3c 6d86 28bd
000001d0: 5a29 77bc c5ae 313c 02d2 83bc c123 0f3d
000001e0: 8d0c c8bc 6adb ddbc 287d 2bbd 247d b2bd
000001f0: d6c9 8e3c 2576 90bc 0336 2ebd aa92 3d3b
00000200: 45e1 71bd 8d99 6bbc 0cb7 4abd 19b5 5e3d
00000210: 592d dfbc 96de 4bbd 92e3 3abd 6f03 023b
00000220: 91b3 cf3d eb7a 393d 28e6 a3bc 366d e6bc
00000230: 5fb3 31bd e1bc e03d 0ba9 b43d 9d1b 0a3d
00000240: ae2e 773c 5282 a1bd 6c73 bfbc c7bc 97bd
00000250: 7c1b 22bd 65d0 5bbd f515 1c3e 5c12 083d
00000260: 8009 82bd bc37 b73c 722a 423e 2b2f dc3c
00000270: 9eee 713c bb1f 343d e7fa 8a3d 42e1 173d
00000280: 254c 993d 17d9 663c a388 1fbc 99e6 673d
00000290: 1d4b 31bc 523d 85bc d710 21bd aabb ce3c
000002a0: 7919 67bc d121 65bc 651c e3bc 7ac5 983d
000002b0: f5e6 1e3d dfe4 95bc 17b3 8cbd 8a38 52bd
000002c0: 6231 92bd 7415 66bd 8b59 0bbd bfac 5dbd
000002d0: 4cd3 55bd 5011 b2bd a02d ddbd 0463 1dbd
000002e0: e4c3 95bc 72e2 85bd 5ec3 afbd 36a7 a5bc
000002f0: 5cde 79bd 9861 893c 4d3a d83a 5542 9f3b
00000300: 7b77 46bd cdfe 3bbd ba3a 92bd 605a 36bd
00000310: 7130 d8bc df2f eabc e3ec a9bd adab 183b
00000320: b4ee d6bc 12ec adbd ad59 9abd 9d91 0fbc
00000330: d14b 27bc a362 e8bc 17e0 df3c a6f6 a2bd
00000340: 3317 debd 6ea5 813c 6058 35bd 4533 80bd
00000350: 52e1 bbbd 925c 62bd 5e5f 5ebc 7b26 a3bc
00000360: 1c94 26bd e205 48bd 9452 d33c 2dbc ecba
00000370: ee76 e0bc a8eb 1d3d ac74 e6bc 5324 97bd
00000380: d351 663c 9f05 5bbd 4b37 d2bd d2db bbbd
00000390: 18af 32bd fcff c8bd 4a59 0ebd 29a2 a6bd
000003a0: 6820 c03b 5157 fabb 815c b0bd 3b0e cabd
000003b0: da76 87bd d1e2 27bc f77a 51bd 0d93 7fbd
000003c0: 2cd3 bfbd 63bb d8bd 7d00 3dbc 9fdd 9cbd
000003d0: 3a7e 5abd d7e0 c1bd f154 9dbd 5863 c1bc
000003e0: f83c b9bd 4f9c 67bc bb3e d1bc b90a dbbc
000003f0: 98cb 26bd 29fe 0f3d 5a8d d73b dfcf 30bd

fc1.bias f4 [120]
-0.14139381 -0.037274227 0.092475705 0.112261385 0.020075882 -0.004560743 -0.025105359 -0.03493789
-0.04676485 0.048996516 0.04521277 0.033533137 -0.14153731 0.062340528 -0.06221882 -0.042049244
0.14533485 0.11555019 0.31912866 0.16122352 -0.12682697 0.08120223 0.18385664 -0.09897081
-0.020077022 -0.13004225 -0.02250912 0.032722976 -0.045901608 0.09114403 0.17986578 0.03791624
0.054572508 0.19608653 0.026884748 0.037458923 0.21994326 -0.05232637 0.035018697 -0.047560267
0.18775341 0.10218867 9.3717405e-05 0.047081772 0.10430253 -0.13337341 -0.039521173 0.04789926
-0.08302345 -0.22536339 0.17870563 0.13261566 0.15841545 0.11472875 0.052480422 0.015097203
-0.050587147 -0.0048956904 0.15714498 0.052260175 -0.0483825 -0.0046596862 0.31763855 0.015985122
-0.06290357 -0.042918053 0.2563514 -0.086201504 -0.03199096 0.084047385 0.14233357 -0.30512267
-0.041817788 0.034395512 -0.03480232 -0.037613135 -0.006434453 -0.0023404711 0.21612169 0.100498535
0.082470454 0.0023586655 -0.13276158 0.25431603 0.17434321 0.15388823 -0.118332624 -0.0066070165
-0.061252967 -0.023315072 0.102236874 0.13806553 -0.15603268 -0.032612387 0.21412162 -0.11982662
-0.039246418 0.1437603 0.21105191 0.057832174 -0.03313835 -0.059265167 0.015062284 -0.04037877
0.055441782 -0.00063249335 0.032941062 0.072398745 0.001885116 -0.054210965 0.2052537 -0.037409898
-0.06862277 0.017636888 0.11797413 0.050537337 -0.15089545 0.029325759 0.072060235 0.004090502
00000000: 8ac9 10be dcac 18bd e763 bd3d 4ce9 e53d
00000010: 2d76 a43c 4972 95bb c1a9 cdbc 081b 0fbd
00000020: 808c 3fbd 92b0 483d 0731 393d 0b5a 093d
00000030: 28ef 10be c858 7f3d 29d9 7ebd d43b 2cbd
00000040: a9d2 143e 94a5 ec3d d564 a33e c717 253e
00000050: eede 01be 5b4d a63d ea44 3c3e 35b1 cabd
00000060: 9178 a4bc cc29 05be 0c65 b8bc 8708 063d
00000070: 5303 3cbd b9a9 ba3d bc2e 383e 0f4e 1b3d
00000080: 6c87 5f3d e8ca 483e 673d dc3c 876e 193d
00000090: ce38 613e 2d54 56bd c46f 0f3d 8ece 42bd
000000a0: 6e42 403e 4b48 d13d 268a c438 d1d8 403d
000000b0: 919c d53d 0a93 08be f4e0 21bd 0432 443d
000000c0: 3308 aabd a9c5 66be 9cfe 363e 66cc 073e
000000d0: a937 223e e8f6 ea3d b6f5 563d 425a 773c
000000e0: 7834 4fbd 076c a0bb 9dea 203e c40e 563d
000000f0: ba2c 46bd 48b0 98bb 85a1 a23e 3bf3 823c
00000100: 96d3 80bd d7ca 2fbd 7e40 833e 6a8a b0bd
00000110: f408 03bd 0921 ac3d e4bf 113e 0a39 9cbe
00000120: 2149 2bbd 4fe2 0c3d e18c 0ebd 3b10 1abd
00000130: 1bd8 d2bb 9762 19bb 014f 5d3e 2dd2 cd3d
00000140: 45e6 a83d d793 1a3b a7f2 07be b635 823e
00000150: 0787 323e e094 1d3e 6058 f2bd ac7f d8bb
00000160: 64e4 7abd 40ff bebc 9161 d13d 0d61 0d3e
00000170: 08c7 1fbe 9194 05bd b342 5b3e a967 f5bd
00000180: dac0 20bd e635 133e fe1d 583e 6ee1 6c3d
00000190: 14bc 07bd 08c0 72bd ccc7 763c 3664 25bd
000001a0: ec16 633d e9cd 25ba 35ed 063d cb45 943d
000001b0: ff15 f73a 510c 5ebd 072e 523e 1f3b 19bd
000001c0: 188a 8cbd 3c7b 903c 6c9c f13d 3d00 4f3d
000001d0: 5684 1abe 933c f03c 5194 933d 9e09 863b

fc2.weight f4 [84, 120]
-0.12655793 0.10702604 -0.03852433 0.04936584 0.08126983 -0.17663439 -0.051879343 -0.118124366
-0.02027763 -0.02168061 -0.030800218 0.015214839 0.13189287 -0.04903076 -0.052753683 -0.14373845
0.038382713 0.1455836 -0.120037034 0.11093074 -0.05174679 0.02701081 0.067451365 -0.05833873
0.030081091 -0.056349836 -0.07278492 0.09775472 0.082547605 -0.05993811 0.14855412 -0.07770398
-0.020648785 0.051441118 -0.01941729 -0.07393889 -0.02817666 -0.026922794 0.065228134 0.011779808
-0.031210728 -0.07905179 0.0708891 -0.04971706 -0.052292276 0.106382504 0.08879434 0.0634256
0.11607613 -0.009429882 0.13407508 -0.1055933 0.10382503 0.1193737 0.022192134 -0.013241672
-0.011755999 -0.0011420273 -0.030557012 -0.09589986 -0.055055875 -0.10500749 0.0130524365 -0.04128279
0.032292314 0.043480426 -0.0768316 -0.18797304 -0.15561403 -0.087289155 -0.01600348 0.11067982
-0.18295315 0.0667988 -0.008040688 -0.015959103 -0.11077734 0.0452595 0.017863179 0.10740807
-0.17412953 0.006361238 0.04435839 0.02761425 -0.05384888 -0.017433947 -0.082768805 -0.07719557
-0.0022644852 0.020635312 -0.090483665 0.00970287 -0.070143975 -0.010432822 0.038581923 0.20412193
-0.03299704 -0.07074746 -0.12679651 -0.060155693 -0.045602497 0.0018012025 0.10715633 -0.018269924
-0.060927838 0.03568675 0.025287688 -0.014075105 -0.12324937 -0.14043342 0.060121827 -0.15113997
-0.11970334 -0.17754032 0.035009187 0.15303345 -0.10518996 0.07301313 0.13726054 -0.069581784
0.13113496 0.11671272 -0.11886841 -0.10882085 0.048246387 0.007340549 -0.112989 -0.010662266
-0.0926612 0.12557992 -0.016033104 -0.029572623 0.1429449 -0.08251602 -0.015691213 -0.024885423
0.11294985 -0.15287662 -0.13627058 0.054199133 -0.019440442 -0.10949524 -0.042096008 -0.061839864
0.016312752 -0.019316087 0.15070269 0.0124410745 0.03148501 0.044927076 -0.06235671 0.037467837
0.14324662 -0.10167869 0.0039609973 -0.16692962 -0.09567978 0.019089367 0.017073644 -0.01106006
-0.14998132 0.043742605 -0.003429005 0.1119535 0.0951664 0.052846473 -0.0870355 0.021568377
0.1311457 0.165045 -0.07608711 -0.010842849 0.064893395 0.10779236 0.06179658 -0.06529679
-0.042460214 -0.072103806 0.0240508 0.079284266 0.091465525 0.13475068 -0.1510917 -0.08249242
0.051006466 0.008768095 -4.2632155e-06 -0.006098461 -0.20872207 -0.12544745 0.11214965 0.12760991
-0.026570324 -0.014472578 -0.026686344 0.048358485 -0.06605755 -0.16181363 -0.121148765 0.0044488935
0.040661648 0.0580503 -0.006439907 -0.16928318 -0.06976458 -0.054967355 -0.050790418 0.00020405324
0.089663476 -0.09136282 -0.023174962 -0.102450155 0.06319825 0.1895408 0.040882867 -0.08585533
-0.05393948 -0.1506045 -0.12617697 0.03950841 -0.021000203 -0.13724712 -0.12519056 0.00057975017
-0.1954345 0.039889436 0.09588621 -0.030408591 -0.1754403 0.06934877 0.0053672167 0.02936815
-0.07672335 -0.036912467 -0.12495396 0.008251327 0.09334123 -0.056137905 -0.073247686 0.048830308
-0.15308529 -0.11453741 -0.14455453 -0.07104698 -0.06356473 -0.14821254 -0.16387475 -0.09340227
0.11359918 0.032107387 -0.08898013 -0.09441882 -0.18890294 -0.02372948 -0.06381098 0.07767993
00000000: 6798 01be 7830 db3d b0cb 1dbd d633 4a3d
00000010: cc70 a63d a5df 34be 6f7f 54bd 30eb f1bd
00000020: 461d a6bc 899b b1bc bd50 fcbc a947 793c
00000030: ed0e 073e 7ad4 48bd 3f14 58bd 2c30 13be
00000040: 3137 1d3d de13 153e fad5 f5bd a82f e33d
00000050: 71f4 53bd c645 dd3c f123 8a3d 98f4 6ebd
00000060: 9f6c f63c 16cf 66bd 4310 95bd a033 c83d
00000070: b80e a93d aa81 75bd 921e 183e 4423 9fbd
00000080: a427 a9bc ecb3 523d 0211 9fbc 466d 97bd
00000090: bdd2 e6bc 318d dcbc 5496 853d 1900 413c
000000a0: a4ad ffbc e8e5 a1bd 4e2e 913d 1ea4 4bbd
000000b0: 6d30 56bd 12df d93d cfd9 b53d 48e5 813d
000000c0: 52b9 ed3d cb7f 1abc fa4a 093e 4d41 d8bd
000000d0: 38a2 d43d 337a f43d 47cc b53c 99f3 58bc
000000e0: 3c9c 40bc 14b0 95ba b352 fabc 2567 c4bd
000000f0: 4582 61bd 2b0e d7bd e3d9 553c 2518 29bd
00000100: f244 043d 8818 323d e359 9dbd 017c 40be
00000110: 4959 1fbe a8c4 b2bd bb19 83bc 1aac e23d
00000120: 1258 3bbe cfcd 883d 17bd 03bc aabc 82bc
00000130: 3bdf e2bd 0762 393d cd55 923c c3f8 db3d
00000140: 034f 32be ef71 d03b 25b1 353d 4837 e23c
00000150: a590 5cbd a3d1 8ebc b182 a9bd b618 9ebd
00000160: c267 14bb 630b a93c 804f b9bd c9f8 1e3c
00000170: a5a7 8fbd 6dee 2abc 1408 1e3d 5705 513e
00000180: e727 07bd 0be4 90bd f2d6 01be d165 76bd
00000190: afc9 3abd 5416 ec3a c774 db3d cfaa 95bc
000001a0: 788f 79bd 452c 123d 2028 cf3c 459b 66bc
000001b0: 2a6a fcbd c7cd 0fbe 4e42 763d 70c4 1abe
000001c0: 0627 f5bd 21cd 35be cb65 0f3d cdb4 1c3e
000001d0: d56d d7bd e887 953d 078e 0c3e e580 8ebd
000001e0: 3e48 063e 1407 ef3d 4871 f3bd 77dd debd
000001f0: 019e 453d fd88 f03b c766 e7bd c9b0 2ebc
00000200: 28c5 bdbd 0698 003e db57 83bc 4942 f2bc
00000210: 2660 123e 29fe a8bd dc8a 80bc 84dc cbbc
00000220: 4052 e73d b08b 1cbe 848a 0bbe e9ff 5d3d
00000230: 9041 9fbc 0a3f e0bd dd6c 2cbd cc4b 7dbd
00000240: 52a2 853c c53c 9ebc ce51 1a3e a6d5 4b3c
00000250: 6df6 003d 7405 383d c069 7fbd e077 193d
00000260: 3eaf 123e eb3c d0bd 41cb 813b 99ef 2abe
00000270: c3f3 c3bd 4e61 9c3c 07de 8b3c 4135 35bc
00000280: b494 19be 722b 333d 28b9 60bb e047 e53d
00000290: 9ae6 c23d 8b75 583d ab3f b2bd 2ab0 b03c
000002a0: 0f4b 063e 8e01 293e 8fd3 9bbd 34a6 31bc
000002b0: d4e6 843d 3ec2 dc3d 691e 7d3d 53ba 85bd
000002c0: c3ea 2dbd 29ab 93bd 2f06 c53c ca5f a23d
000002d0: 4752 bb3d 15fc 093e c8b7 1abe c9f1 a8bd
000002e0: 28ec 503d 0ea8 0f3c be0c 8fb6 99d5 c7bb
000002f0: 3dbb 55be 4c75 00be b7ae e53d 2cac 023e
00000300: 02aa d9bc 641e 6dbc 529d dabc 8c13 463d
00000310: 2e49 87bd 79b2 25be d81c f8bd 06c8 913b
00000320: d48c 263d 27c6 6d3d db05 d3bb 9258 2dbe
00000330: bbe0 8ebd 7325 61bd 9d09 50bd 20f7 5539
00000340: 7ca1 b73d 6e1c bbbd 6bd9 bdbc 63d1 d1bd
00000350: 166e 813d fc16 423e cb74 273d ebd4 afbd
00000360: a5ef 5cbd 1138 1abe 8934 01be 92d3 213d
00000370: 9e08 acbc 828a 0cbe f431 00be 60fa 173a
00000380: fb1f 48be 1b63 233d fd5f c43d 701b f9bc
00000390: 9fa6 33be ba06 8e3d 7adf af3b 7995 f03c
000003a0: 2221 9dbd 8731 17bd dde7 ffbd 9330 073c
000003b0: b029 bf3d dcf0 65bd e202 96bd 4a02 483d
000003c0: 64c2 1cbe 9792 eabd 1a06 14be 1481 91bd
000003d0: 3a2e 82bd 07c5 17be c8ce 27be b049 bfbd
000003e0: b0a6 e83d 0983 033d 373b b6bd a85e c1bd
000003f0: c66f 41be 5464 c2bc 55af 82bd a816 9f3d

fc2.bias f4 [84]
0.08201701 -0.11941035 0.23609762 0.2602041 0.4373282 0.079453364 0.00936335 -0.03445457
0.17577524 -0.009214574 0.48391864 -0.11118248 0.22259425 -0.008291624 -0.077825524 -0.03628102
-0.0020174645 -0.045859396 0.42914197 0.35681555 -0.012124006 -0.09441733 0.10896946 0.33116117
0.31251365 0.2199707 0.27366093 0.023095198 0.11402435 0.09382108 -0.055422578 -0.038885366
0.06544597 0.46926346 0.01102788 0.17738971 0.26502743 0.19006409 -0.091032766 0.31766415
0.1539674 0.32407224 -0.009867037 -0.002744039 -0.0581452 0.04349948 -0.06767296 -0.0006620593
-0.10161409 0.021183394 0.060435206 -0.09544581 0.025672143 0.027797349 0.14107636 0.3671781
0.29908577 0.18480115 0.19302544 0.08110445 0.16192947 0.38704756 0.053553674 0.491733
0.21199419 0.014597353 0.3011281 0.067551844 -0.05294552 0.05211593 -0.089201055 -0.10877648
2.4592387e-05 -0.011598556 -0.050657585 -0.15814728 -0.009051883 0.16397756 0.111659884 -0.060139768
0.12397999 -0.01329358 0.16055971 0.5685905
00000000: 89f8 a73d 6a8d f4bd 93c3 713e 7939 853e
00000010: 7be9 df3e 72b8 a23d bd68 193c 3c20 0dbd
00000020: 6dfe 333e b9f8 16bc 2fc4 f73e a4b3 e3bd
00000030: bfef 633e 97d9 07bc fd62 9fbd 689b 14bd
00000040: 7037 04bb 10d7 3bbd 7fb8 db3e 87b0 b63e
00000050: c4a3 46bc e05d c1bd 612b df3d f58d a93e
00000060: ca01 a03e 0040 613e 491d 8c3e 2432 bd3c
00000070: 9985 e93d 4425 c03d c902 63bd 4346 1fbd
00000080: 8908 863d 4d43 f03e 48ae 343c a6a5 353e
00000090: adb1 873e 29a0 423e 636f babd e0a4 a23e
000000a0: a1a9 1d3e ccec a53e 5aa9 21bc 56d5 33bb
000000b0: a929 6ebd 832c 323d 1f98 8abd 0c8e 2dba
000000c0: 0c1b d0bd cc88 ad3c e88a 773d 1879 c3bd
000000d0: 634e d23c 44b7 e33c 5276 103e c5fe bb3e
000000e0: c521 993e 833c 3d3e 76a8 453e 171a a63d
000000f0: d7d0 253e 192b c63e 195b 5b3d 6ec4 fb3e
00000100: 0115 593e bc29 6f3c 762d 9a3e 9f58 8a3d
00000110: 67dd 58bd 8377 553d 0baf b6bd 34c6 debd
00000120: c04b ce37 df07 3ebc 547e 4fbd 5cf1 21be
00000130: 594e 14bc bce9 273e f0ad e43d 1e55 76bd
00000140: 39e9 fd3d 51cd 59bc c469 243e 268f 113f

fc3.weight f4 [10, 84]
0.18523444 0.14850685 -0.1513031 -0.28763753 -0.38825178 0.09745091 -0.16358453 0.14472543
-0.028889466 0.0039872574 -0.041446134 -0.039597087 -0.03279166 -0.15610917 -0.09919289 -0.060266085
-0.058589682 0.004490808 0.086172044 0.20144732 0.13957848 0.14406028 0.117658995 -0.0498326
-0.06927404 0.06252774 -0.02106309 0.004967517 0.18235222 0.044321995 0.10744439 0.14384356
0.2409702 -0.044143025 0.2775502 -0.16705362 0.30875078 0.24913682 0.032758746 0.04678146
-0.06588711 -0.015007033 0.067375794 0.14052467 -0.039974596 -0.10713341 0.1799493 0.06278273
0.05978254 0.093050085 -0.057704236 0.23120658 -0.0766444 0.18503682 0.15924187 0.30845934
-0.1874874 -0.14742337 -0.16136855 0.029878883 0.10516054 -0.21213873 -0.0913862 0.28078112
0.20744593 -0.055720896 -0.30296478 0.037700273 -0.19647907 0.24874558 0.0686842 -0.1262567
0.07240369 0.11828068 -0.026991261 -0.085054494 -0.054893613 0.088145405 0.07774417 -0.011231557
0.23102425 -0.08119439 0.23268664 -0.3698502 -0.23835588 -0.053154692 -0.40126953 0.21341348
-0.32676712 0.13632548 0.08815375 0.108816065 0.015411683 0.0022594787 -0.49909633 -0.0022835406
-0.24408755 -0.051260665 -0.08907441 -0.01679668 0.1074508 0.16743875 0.14837648 -0.15423848
0.06384536 0.09411676 0.2597378 -0.1247233 -0.3064234 0.22965445 -0.31240168 -0.20559484
0.31211323 -0.14313039 0.235236 0.16194378 -0.07504892 -0.10619063 -0.12128605 -0.03249542
-0.14569145 -0.31090498 0.18487754 -0.024429487 -0.16747423 0.009186528 0.032825086 -0.18757495
0.07167133 0.12243469 0.11021507 0.012776301 0.0040717274 0.049339384 0.18580222 0.025651813
-0.18433289 -0.039114583 0.22821316 -0.0019968653 -0.14884758 -0.05233431 0.10143317 -0.21213938
-0.04793773 0.082670726 0.07229843 -0.24171165 0.009172561 0.1131487 0.11138671 0.04955014
0.044932775 0.22606169 0.19075958 0.17623562 -0.10697695 0.2805801 -0.106204845 0.20228213
-0.014917144 0.0019149602 0.07866329 0.07299032 0.13205785 0.09456041 -0.13066384 -0.25810027
-0.020607825 0.19152524 0.11688783 -0.105275095 0.18806574 0.22791828 0.06396024 -0.15456066
0.018962864 -0.07169484 0.27005503 0.25754055 0.09536837 -0.1757637 0.0044524185 0.03095387
0.06948647 -0.12800431 -0.12640288 -0.118902035 0.082860105 0.100852184 -0.15321903 0.28892976
0.10262339 0.16365868 -0.2083484 -0.003371394 -0.026732512 0.033445165 -0.022744019 0.011635795
0.26237142 -0.059968643 0.09670738 0.23474908 -0.05341084 0.15071942 -0.06889761 -0.036836773
0.08317768 -0.092809565 0.012487591 -0.057710547 0.07812993 -0.001161813 0.06823026 -0.10040509
-0.077911876 0.008116638 0.16237396 0.061114587 -0.08345335 0.26046312 -0.050970253 0.073130816
0.22416839 -0.19853613 -0.09125054 -0.124097206 0.19203131 0.018582586 0.042086117 -0.0178848
0.27907452 -0.06918525 0.06601685 -0.0019374057 0.09353061 -0.19282432 -0.0934385 0.03980927
-0.013255239 -0.21881126 0.06499132 -0.090101644 0.011338052 -0.31453142 -0.09373385 0.08793578
-0.17236258 0.036841046 0.1647607 0.19208676 0.16912836 0.09759015 0.16801637 0.17227839
00000000: 19ae 3d3e 2e12 183e 33ef 1abe 3a45 93be
00000010: f0c8 c6be 5894 c73d b482 27be e732 143e
00000020: 9aa9 ecbc 8aa7 823b 6cc3 29bd 8e30 22bd
00000030: 8c50 06bd 15db 1fbe a425 cbbd 92d9 76bd
00000040: bcfb 6fbd a127 933b f87a b03d 3548 4e3e
00000050: a9ed 0e3e 8a84 133e 33f7 f03d 451d 4cbd
00000060: 8cdf 8dbd 8b0e 803d 808c acbc 8ec6 a23b
00000070: 8aba 3a3e fb8a 353d ce0b dc3d ba4b 133e
00000080: e4c0 763e 51cf 34bd 0f1b 8e3e 1b10 2bbe
00000090: 9514 9e3e b91d 7f3e 092e 063d eb9d 3f3d
000000a0: d2ef 86bd 0fe0 75bc 52fc 893d b3e5 0f3e
000000b0: 67bc 23bd c368 dbbd a144 383e 3b94 803d
000000c0: 89de 743d 0b91 be3d 475b 6cbd 6bc1 6c3e
000000d0: bdf7 9cbd 4b7a 3d3e 4d10 233e 62ee 9d3e
000000e0: b2fc 3fbe 27f6 16be cc3d 25be 8fc4 f43c
000000f0: 695e d73d e53a 59be b028 bbbd 8bc2 8f3e
00000100: b56c 543e 983b 64bd 331e 9bbe 9a6b 1a3d
00000110: cf31 49be 29b7 7e3e 4daa 8c3d 7049 01be
00000120: 6348 943d 243d f23d c71c ddbc 0d31 aebd
00000130: 20d8 60bd 9485 b43d 5638 9f3d 9004 38bc
00000140: 9f91 6c3e 3f49 a6bd 6845 6e3e 015d bdbe
00000150: 9013 74be bcb8 59bd 3373 cdbe 1089 5a3e
00000160: 054e a7be e898 0b3e f489 b43d f5da de3d
00000170: 4981 7c3c c313 143b 8e89 ffbe 74a7 15bb
00000180: 16f2 79be b4f6 51bd a56c b6bd 3199 89bc
00000190: 2a0f dc3d 1075 2b3e 01f0 173e b1f0 1dbe
000001a0: 5bc1 823d 4ac0 c03d 5afc 843e ee6e ffbd
000001b0: 87e3 9cbe 892a 6b3e 1df3 9fbe 7487 52be
000001c0: 4ecd 9f3e c690 12be b5e1 703e 97d4 253e
000001d0: 40b3 99bd 797a d9bd d264 f8bd eb19 05bd
000001e0: 2430 15be f02e 9fbe 8a50 3d3e 5920 c8bc
000001f0: 5d7e 2bbe 1783 163c 9973 063d a613 40be
00000200: 6bc8 923d 0abf fa3d 70b8 e13d b153 513c
00000210: 206c 853b 1818 4a3d f042 3e3e c023 d23c
00000220: c3c1 3cbe 9d36 20bd b6b0 693e d7dd 02bb
00000230: 806b 18be 805c 56bd 32bc cf3d 113b 59be
00000240: 5a5a 44bd 454f a93d 3311 943d 4283 77be
00000250: 8248 163c 81ba e73d b71e e43d 16f5 4a3d
00000260: 6e0b 383d b77c 673e 7b56 433e 1c77 343e
00000270: bb16 dbbd 32a8 8f3e ed81 d9bd 0c23 4f3e
00000280: 0967 74bc 67ff fa3a 381a a13d f37b 953d
00000290: 2c3a 073e e3a8 c13d becc 05be b825 84be
000002a0: bed1 a8bc 311f 443e e362 ef3d 789a d7bd
000002b0: 4e94 403e 6963 693e 96fd 823d 2645 1ebe
000002c0: 0258 9b3c bfd4 92bd a744 8a3e 5bdc 833e
000002d0: 7e50 c33d 66fb 33be 98e5 913b f892 fd3c
000002e0: ec4e 8e3d 9013 03be c26f 01be e982 f3bd
000002f0: 8fb2 a93d 978b ce3d 73e5 1cbe 9aee 933e
00000300: 362c d23d 2496 273e 4859 55be 9bf2 5cbb
00000310: 24fe dabc ccfd 083d aa51 babc 10a4 3e3c
00000320: 8c55 863e aea1 75bd 850e c63d 1062 703e
00000330: 53c5 5abd 3156 1a3e 311a 8dbd 28e2 16bd
00000340: 0f59 aa3d f112 bebd c198 4c3c e561 6cbd
00000350: 9602 a03d fa47 98ba 4ebc 8b3d 2fa1 cdbd
00000360: 4390 9fbd a6fb 043c 5c45 263e 4a53 7a3d
00000370: 97e9 aabd 6c5b 853e 2fc6 50bd 9cc5 953d
00000380: 668c 653e 0e4d 4bbe 90e1 babd ad26 febd
00000390: dba3 443e 823a 983c 7e62 2c3d 2583 92bc
000003a0: dbe2 8e3e ffb0 8dbd d833 873d 8cf0 fdba
000003b0: fa8c bf3d bd73 45be af5c bfbd 0c0f 233d
000003c0: 812c 59bc 0f10 60be 2b1a 853d 3687 b8bd
000003d0: 3dc3 393c 430a a1be 88f7 bfbd ad17 b43d
000003e0: d17f 30be a3e6 163d 07b7 283e 64b2 443e
000003f0: fc2f 2d3e 58dd c73d 7c0c 2c3e bf69 303e

fc3.bias f4 [10]
-0.37055364 -0.56936353 -0.07129424 0.4397484 0.44084904 -0.042682778 0.15751468 -0.44968104
0.42933914 -0.34903204
00000000: 35b9 bdbe cfc1 11bf b702 92bd b426 e13e
00000010: f7b6 e13e 23d4 2ebd 874b 213e 983c e6be
00000020: 57d2 db3e 54b4 b2be
