models/titanic_model.pt (torch, 3429 bytes, 6 tensors)

linear1.weight f4 [12, 12]
00000000: 1b5b 25bd e459 ba3e 4436 813d 7220 c0bc
00000010: 24f8 a040 7e8c a6c0 25f3 c33f 6c95 52bf
00000020: ca84 a7bf d034 5840 b7d8 423f 12a0 55c0
00000030: cbb6 1f3f 4e5e db3e 0bda 253f d8b3 443f
00000040: 219b 3fbf dc61 e83e e697 ea3e 5210 143f
00000050: f406 e73e 0540 fd3e 8441 113f bd9f 063f
00000060: fdfc 05bf e311 2dbf 6511 29bf 6ca9 35bf
00000070: 0075 9d3e 9c6e afbe 98e3 12bf 1e86 bdbe
00000080: df06 24bf e07e 28bf aa62 5ebf 0a3c 35bf
00000090: b76d 793d 2afc 2fc0 d106 9dc0 16f0 7c3e
000000a0: ffab 2840 4698 b5bd 91a9 fc40 e934 fbbf
000000b0: e2ec ba3e 89d6 0940 0af7 8240 b13e d1bf
000000c0: 349a e23e 6b7f 773f 65dd b0c0 ee44 05bf
000000d0: 1144 98c0 58f6 2a40 d846 4ac0 0cb4 2ec0
000000e0: 7a12 1fbe 0d7d d0c0 6ea1 9a3f 6482 98bf
000000f0: 4f27 00bf 94c9 0ebf 02a3 4dbf f635 4abf
00000100: 6b6e 673e ed2d 93be 42c9 24bf e23e 2fbf
00000110: 9052 2dbf e3e4 0fbf b45c 57bf fde8 3fbf
00000120: d838 1040 a871 8740 8354 a5c0 d421 fa3c
00000130: e5cf 8a3e d288 2dc0 8e2a a3c0 b31f 29bf
00000140: ccc5 ebbf 5932 46c0 35d7 02c1 97b3 a140
00000150: 92b8 98bd 0ea3 cb3c bc65 5bc0 671b d7be
00000160: 7a18 72c0 b193 4240 e562 90bf 73b4 34bf
00000170: 5a22 2bbc a03e d6bf 7096 b8be a304 76be
00000180: 3754 f33e b15d 033f 6b86 4f3f 3d93 393f
00000190: ca1e a9be 4655 083f 848c 983f c42b 79bf
000001a0: db1a 1f3f a63e 083e ce25 153d 7090 333f
000001b0: 44b6 2f3f 0a63 2e3f 8449 ed3e 489d a63e
000001c0: 54bd 31bf c6b0 673f 75e5 a13e e44f 073f
000001d0: 1a6b 5a3f 71b6 56bf 46ae 78be 81d8 4a3f
000001e0: 09c5 2ac0 aae9 10c0 376a 0c40 89bc abbd
000001f0: 93d2 febd b620 7dbf d723 a840 dfa4 2f3f
00000200: 7493 4bc0 3895 993f f787 cc40 7256 04c1
00000210: 50fa 623d c646 6440 1739 d73e 05b1 213e
00000220: dc7f 69c0 9e0c 2240 4638 9dc0 f6ea ee3e
00000230: a01d 2a3f dd84 89c0 6d3f 35c0 18a1 2c40
-0.040370088 0.36396706 0.063091785 -0.023452971 5.0302906 -5.20465 1.5308577 -0.8225925
-1.3087399 3.3782234 0.7611193 -3.337895 0.62388295 0.42845386 0.6478583 0.7683692
-0.7484608 0.4538716 0.45819014 0.578374 0.45122492 0.49462906 0.56740594 0.5258749
-0.52339154 -0.6760542 -0.66042167 -0.7096164 0.30753326 -0.34264076 -0.5737853 -0.37016386
-0.64072984 -0.65818596 -0.868693 -0.7079474 0.060895648 -2.7497659 -4.907082 0.2470096
2.6354978 -0.088669345 7.895699 -1.9625522 0.36508852 2.1537192 4.092656 -1.6347257
0.44258273 0.966788 -5.5270257 -0.52058303 -4.758309 2.6712856 -3.160574 -2.7297392
-0.15534392 -6.515265 1.2080514 -1.1914792 -0.5005998 -0.55776334 -0.80326855 -0.7898859
0.22600715 -0.28745976 -0.64369595 -0.68455327 -0.67704105 -0.5620863 -0.8412583 -0.74964887
2.2534695 4.232624 -5.1665664 0.030533709 0.27111736 -2.7114758 -5.0989447 -0.66063994
-1.8419738 -3.096823 -8.177541 5.0531726 -0.07457079 0.024858024 -3.4280844 -0.42013094
-3.782744 3.0402644 -1.128018 -0.70587844 -0.010445202 -1.6737862 -0.36052275 -0.24025206
0.47525188 0.51314837 0.8106448 0.7249029 -0.33031303 0.53255117 1.1917882 -0.97332406
0.62150353 0.13305148 0.036413006 0.7014227 0.6863749 0.6811987 0.4634515 0.3254187
-0.69429517 0.9050411 0.31620374 0.5285628 0.85319674 -0.83872133 -0.2428523 0.7923661
-2.668276 -2.2642617 2.1939828 -0.083855696 -0.124425076 -0.9887804 5.254375 0.6861095
-3.1808748 1.1998663 6.3915973 -8.271105 0.055414498 3.5668197 0.42035744 0.15790184
-3.648429 2.53202 -4.9131193 0.46663636 0.66451454 -4.2974687 -2.8319962 2.6973324

linear1.bias f4 [12]
00000000: c2d3 0e3f 09a4 5a3f 1428 14bf 5cc7 c23f
00000010: 29dd 09c0 455e 4ebf 42f7 5ac0 6cb4 8abf
00000020: bae6 e13e f47c fa3e 375b 84be a10e 40bf
0.55791867 0.8540655 -0.57873654 1.521709 -2.1541235 -0.80612594 -3.4213414 -1.083631
0.44121343 0.48923457 -0.2585084 -0.7502232

linear2.weight f4 [8, 12]
00000000: 93db 1bc0 0dd5 0fbf dc38 603f 097a 26c0
00000010: 0405 3040 f0c1 683f e649 c73f 4d59 2140
00000020: fa66 2ebf 0be2 04be 3959 7ebf f3c1 2540
00000030: bdbf 1fc0 3aeb 4ebe bb33 1ebf bd32 4ac0
00000040: a48a 2940 8c09 b5be 0704 bf3f cac1 f43f
00000050: 362c 33be fd7c 31be 5a2b 94bf e7b1 0b40
00000060: 7513 1ac0 71eb 20bf cfd0 413f 04d7 0ec0
00000070: da44 2e40 ee4f 343f 43e8 ea3f 43f1 fb3f
00000080: 4e1c 21bf 645a dcbe 4f3e 3abf ac86 1e40
00000090: 4f39 7540 4c20 fe3e 32b8 aabe 7faf c03f
000000a0: eff0 68bf 5998 bdbe e9b7 afbf ed3d 0dbf
000000b0: 3fa5 193f bc6f 843e 5616 273f 5c4d 1ebf
000000c0: 41fd 4ebf 826a 3cbf 5d86 b3be 86c3 2bc0
000000d0: a965 9140 405d aabe f767 c33e 6e58 c7bd
000000e0: ee46 36bf 6ee7 68bf 0fe1 61bf ba2c 5140
000000f0: 3052 22c0 5d20 22be 88fe 683f b1d4 1cc0
00000100: 0d5d 3240 a33f 4b3f bbf6 d63f 3c35 0f40
00000110: 18d3 1abf 2d4e c8be 87bf 8bbf 266b 1c40
00000120: d2f5 3fbf 2e6b 7cbf 691f dbbe 7584 53bf
00000130: d1c7 423f e260 07bf 6f14 4dbf b118 d2be
00000140: e766 08bf 2887 7ebf 70e4 66bf 2b31 36bf
00000150: 9927 28c0 a886 f2be 1ee0 ae3e 6906 06c0
00000160: 732e 2c40 ef70 063f 1d58 e33f 8c0a bf3f
00000170: 126d b0be 54cd c0be fca8 69bf 8877 1240
-2.4352767 -0.56184465 0.8758676 -2.6011984 2.7503061 0.90920925 1.5569427 2.5210755
-0.6812588 -0.12976854 -0.9935489 2.5899627 -2.4960778 -0.2020692 -0.61797684 -3.1593468
2.649087 -0.35358846 1.4923104 1.912164 -0.17497334 -0.17332835 -1.157573 2.1827333
-2.4074376 -0.62859255 0.7570924 -2.2318735 2.7229524 0.70434463 1.8352131 1.9683002
-0.62933815 -0.43037713 -0.72751325 2.4769697 3.8316228 0.49634016 -0.33343655 1.5053557
-0.90992635 -0.37030295 -1.3728 -0.55172616 0.6001777 0.25866497 0.65268457 -0.6183679
-0.80855185 -0.7360002 -0.3506345 -2.6838088 4.5436597 -0.3327427 0.38165256 -0.097336635
-0.7120198 -0.90978134 -0.8823404 3.268355 -2.5362663 -0.15832658 0.91013384 -2.4504817
2.7869294 0.79393977 1.6794046 2.2376242 -0.60478354 -0.39122143 -1.0917825 2.4440398
-0.7498447 -0.98601043 -0.42797402 -0.8262399 0.76086146 -0.52882206 -0.80109304 -0.41034463
-0.53282017 -0.9942498 -0.9019232 -0.71168774 -2.6274168 -0.4736836 0.34155363 -2.0941412
2.690335 0.52516073 1.7761265 1.4925094 -0.34458214 -0.37656653 -0.91273475 2.2885456

linear2.bias f4 [8]
00000000: d3bf 85be d5b3 9dbe 2b3c 84be 407e 0f3f
00000010: c0c1 5bbf d2f4 ffbe 7e5e 06bf f3b6 d7be
-0.26122913 -0.30801263 -0.25827155 0.5605202 -0.85842514 -0.4999147 -0.52487934 -0.42131767

linear3.weight f4 [2, 8]
00000000: 78c8 af3f 763d d63f e982 cd3f 5277 e8bf
00000010: d9f1 0d3f 64c2 b23f ac72 c4bb ad20 bb3f
00000020: ba24 eebf 7527 85bf 28fc c6bf a59c df3f
00000030: 7c10 38bf f80f d6bf 039d 1b3d 6c86 c8bf
1.3733053 1.6737506 1.6055576 -1.8161414 0.55447155 1.3965573 -0.0059951153 1.4619347
-1.8604958 -1.0402666 -1.5545702 1.7469679 -0.71900153 -1.6723623 0.037991535 -1.5666022

linear3.bias f4 [2]
00000000: ae41 00c0 72fe ed3f
-2.0040088 1.8593276
